Using TensorFlow backend.
_________________________________________________________________
Layer (type)                 Output Shape              Param #   
=================================================================
conv2d_1 (Conv2D)            (None, 200, 200, 16)      2368      
_________________________________________________________________
max_pooling2d_1 (MaxPooling2 (None, 100, 100, 16)      0         
_________________________________________________________________
batch_normalization_1 (Batch (None, 100, 100, 16)      64        
_________________________________________________________________
conv2d_2 (Conv2D)            (None, 100, 100, 32)      12832     
_________________________________________________________________
max_pooling2d_2 (MaxPooling2 (None, 50, 50, 32)        0         
_________________________________________________________________
batch_normalization_2 (Batch (None, 50, 50, 32)        128       
_________________________________________________________________
conv2d_3 (Conv2D)            (None, 50, 50, 64)        18496     
_________________________________________________________________
max_pooling2d_3 (MaxPooling2 (None, 25, 25, 64)        0         
_________________________________________________________________
batch_normalization_3 (Batch (None, 25, 25, 64)        256       
_________________________________________________________________
conv2d_4 (Conv2D)            (None, 25, 25, 128)       73856     
_________________________________________________________________
max_pooling2d_4 (MaxPooling2 (None, 13, 13, 128)       0         
_________________________________________________________________
batch_normalization_4 (Batch (None, 13, 13, 128)       512       
_________________________________________________________________
conv2d_5 (Conv2D)            (None, 13, 13, 128)       147584    
_________________________________________________________________
max_pooling2d_5 (MaxPooling2 (None, 7, 7, 128)         0         
_________________________________________________________________
batch_normalization_5 (Batch (None, 7, 7, 128)         512       
_________________________________________________________________
conv2d_6 (Conv2D)            (None, 7, 7, 256)         295168    
_________________________________________________________________
max_pooling2d_6 (MaxPooling2 (None, 4, 4, 256)         0         
_________________________________________________________________
batch_normalization_6 (Batch (None, 4, 4, 256)         1024      
_________________________________________________________________
flatten_1 (Flatten)          (None, 4096)              0         
_________________________________________________________________
dense_1 (Dense)              (None, 1024)              4195328   
_________________________________________________________________
batch_normalization_7 (Batch (None, 1024)              4096      
_________________________________________________________________
dropout_1 (Dropout)          (None, 1024)              0         
_________________________________________________________________
dense_2 (Dense)              (None, 10)                10250     
=================================================================
Total params: 4,762,474
Trainable params: 4,759,178
Non-trainable params: 3,296
_________________________________________________________________
Found 3117 images belonging to 4 classes.
Found 1692 images belonging to 4 classes.
Epoch 1/20
2019-01-29 15:42:04.759792: W tensorflow/core/framework/allocator.cc:122] Allocation of 81920000 exceeds 10% of system memory.
…
